Classification/Pretrained_models/classification.pt (torch, 345039 bytes, 6 tensors)

features.conv0.scores f4 [12, 2, 5, 5]
000000 71 4b 18 b8 e1 4e f4 3a 4b fb 9c 38 a6 65 02 bf
       -3.6309884e-05 0.001863923 7.4854666e-05 -0.50936353
000010 1d ae 42 be 0b 7b 29 38 48 31 c2 38 e5 3f 5e 3e
       -0.19011731 4.0407333e-05 9.25982e-05 0.21704061
000020 16 34 40 be 1b 63 83 3d 7b 34 87 bb 5e a4 a3 bd
       -0.18769869 0.06415387 -0.004126129 -0.07990335
000030 25 5c 07 b8 0d 8f 95 be a4 d4 bc b7 6b 32 03 3d
       -3.2272324e-05 -0.29210702 -2.2510365e-05 0.032030504
000040 e0 95 1a 3a 86 c1 af 3d ea fc 89 be 7a 88 c1 38
       0.0005896967 0.085818335 -0.2695077 9.228378e-05
000050 8a 73 99 36 be df ba 3e 6e 12 a6 38 71 7d 5e 38
       4.573206e-06 0.36498827 7.9189296e-05 5.304575e-05
000060 46 92 87 bb b2 62 36 3e 9f f1 52 38 20 f6 71 bb
       -0.00413731 0.17811087 5.029293e-05 -0.0036920384
000070 d6 d9 82 38 68 43 a2 bb 0d f8 19 38 9c 3c 06 39
       6.239458e-05 -0.004951883 3.6709058e-05 0.00012801815
000080 7b c6 8f ba a4 b3 88 bb 81 6d 88 3b 34 73 8e bc
       -0.0010969186 -0.0041718055 0.0041634445 -0.017388918
000090 07 d5 51 39 d0 4f 44 39 d9 c2 1a ba 9b 59 f0 b8
       0.00020011152 0.00018721749 -0.00059036684 -0.00011460782
0000a0 e3 6d 88 b9 03 4e 85 bb 20 30 89 3b 2c b1 6d b9
       -0.00026021813 -0.0040681376 0.004186645 -0.00022668083
0000b0 15 cc ca 39 e3 5e 88 3a 19 7c 87 3b 99 b3 76 3a
       0.00038680495 0.0010404255 0.0041346666 0.00094109174
0000c0 38 82 c6 ba 23 a6 f2 3a f8 b1 df b8 e9 dd dc 37
       -0.0015145009 0.0018512647 -0.00010666618 2.6329379e-05
0000d0 ef 68 1e 38 fd 64 3d 39 07 91 eb 3d 9d 21 38 be
       3.7767863e-05 0.00018062066 0.11502271 -0.17981572
0000e0 52 b0 ad 37 82 eb a4 b7 51 19 ab be e2 f5 11 38
       2.0705313e-05 -1.965999e-05 -0.33417752 3.479969e-05
0000f0 ed 58 71 3e 3a 49 8b 3d 97 4b 8c 37 8a 17 14 3e
       0.23569079 0.06801076 1.67245e-05 0.14462104
000100 6b 02 3b 38 3d b4 86 3d df af 83 bd e9 00 ae 37
       4.4586526e-05 0.065773465 -0.06430029 2.074284e-05
000110 a1 cd 2a 3d f4 0e 9a 3d 12 4f 02 b6 b5 b8 86 be
       0.04170001 0.07522383 -1.9417535e-06 -0.26312795
000120 89 93 02 38 93 52 c7 3e 8d 2a 0d 3e 4b 5a 85 3b
       3.1131818e-05 0.38930187 0.13785763 0.0040696017
000130 3d b6 0a bb 1f 0d 95 bc 09 f7 59 38 41 63 ab bc
       -0.0021165751 -0.018194733 5.19669e-05 -0.020921351
000140 a5 bc 5f bb f8 8e 83 3d 5d b7 0a 3d 5d 88 18 b9
       -0.003413954 0.064237535 0.033866275 -0.00014546649
000150 f4 f1 36 b8 54 4b a8 36 ae 44 53 be ac 96 c2 b6
       -4.3617518e-05 5.0155595e-06 -0.20631668 -5.799191e-06
000160 e9 50 49 3e 4e e5 3e be d7 70 83 3d 39 a9 86 3b
       0.19659771 -0.1864216 0.06418007 0.0041095284
000170 dd 8d 82 38 26 a5 89 b7 89 73 45 bd a9 02 70 bc
       6.225307e-05 -1.6408576e-05 -0.048205886 -0.014649072
000180 fd ff 1e 3e da 03 0d b8 da 15 09 38 ae 7c 82 bd
       0.1552734 -3.3620607e-05 3.2683696e-05 -0.06371437
000190 7b 73 bb bb b5 5f 8f b6 df 1d 8d bd 7a b5 c8 bc
       -0.0057205535 -4.272874e-06 -0.06890463 -0.024500597
0001a0 64 d9 43 b7 5c 34 ef b8 a2 7d 9d bd 20 f5 1f be
       -1.1673521e-05 -0.00011406161 -0.07689978 -0.15620852
0001b0 16 7f 23 37 e5 ec 5e 3e aa 46 c7 bb ff 89 87 3b
       9.745147e-06 0.21770056 -0.006081422 0.0041363235
0001c0 a3 6d 31 b8 2b 87 3d 37 ed ad a5 3e 48 44 07 bd
       -4.2302196e-05 1.1296749e-05 0.32359257 -0.033024102
0001d0 7c 07 0f bd d8 b3 fe 3a db c5 86 3b a7 9d e6 b6
       -0.034919247 0.001943226 0.0041129417 -6.8728873e-06
0001e0 7a 7a 83 38 d8 4b 26 bd 09 77 d1 bd ba c5 80 3d
       6.26938e-05 -0.040599674 -0.10227782 0.06287713
0001f0 d2 31 85 bb 55 bc 9c 38 09 5a 7d b8 a4 bf 1f bd
       -0.004064777 7.473739e-05 -6.0403752e-05 -0.039001122
000200 d0 a2 3a 38 2c f9 b3 bc 28 05 0d bc 9f 23 85 3b
       4.4497487e-05 -0.0219694 -0.008607186 0.0040630843
000210 8d fd 40 bd 93 9c bb b7 11 7b 1d 3d 3d 8c 2f be
       -0.047116805 -2.2365048e-05 0.038447443 -0.1714334
000220 41 a0 55 37 51 6c 5c bb 63 55 6f 3b 11 04 88 3b
       1.2733101e-05 -0.0033633898 0.00365194 0.0041508754
000230 49 6b 4f 37 5f 3d 79 3d d8 9c 8e 3d 38 21 b2 b8
       1.2363141e-05 0.060849544 0.06963509 -8.493889e-05
000240 a1 22 0c ba a1 c3 b8 b7 4d dd d6 3e db 41 5c be
       -0.0005345736 -2.2025606e-05 0.41965714 -0.21509497
000250 0d 24 ae bd 31 f4 9d 38 24 a2 1e bc e0 db 89 bb
       -0.0850297 7.5318276e-05 -0.009682212 -0.0042071193
000260 21 6f 8d 38 5a 6e db b8 ec af ba 3b 5e 9e 9f b5
       6.744103e-05 -0.00010463288 0.005697241 -1.1892514e-06
000270 18 43 52 3e 32 30 1b 38 eb 6b de bc 80 8c 33 39
       0.20533407 3.6999765e-05 -0.027151069 0.0001712311
000280 37 d5 9a be 07 55 82 37 d5 7e 2d 38 0d a2 65 be
       -0.30240795 1.5536802e-05 4.1364536e-05 -0.22425099
000290 e8 50 1e 3b 77 6d d8 3b bb 6a df bd fb b1 32 3e
       0.002415711 0.006604846 -0.10909029 0.17450707
0002a0 7b ac bb bd ce 03 cb bd c6 17 13 b7 01 78 8c bd
       -0.091637574 -0.09912835 -8.767418e-06 -0.068588264
0002b0 37 e4 9e 38 cc b7 71 38 90 09 16 38 ec 45 88 3b
       7.5765354e-05 5.763005e-05 3.5771693e-05 0.004158726
0002c0 2c 83 49 b8 1b 0c cc bc e9 c3 ad 3e a6 ca 39 b6
       -4.8044298e-05 -0.024908116 0.3393853 -2.7685105e-06
0002d0 82 87 47 38 d6 17 ed bd c6 6f 35 3e 64 47 79 3d
       4.75715e-05 -0.11576812 0.1771842 0.0608591
0002e0 19 bf 9c 38 ad 0d b0 3c fe 31 3e b8 65 0f 54 38
       7.4742544e-05 0.021490896 -4.534609e-05 5.0559076e-05
0002f0 a9 cf d5 3a 16 64 88 3b a3 02 dd 38 31 3f 07 3d
       0.0016312498 0.004162322 0.00010538592 0.03301925
000300 a0 e1 ad bc b3 59 08 3c e0 cd 15 3a 36 cb 88 3b
       -0.02122575 0.008322167 0.00057145767 0.0041746153
000310 25 81 a5 bb e4 fd 3f bb 06 5a 85 bb e0 9d ac 38
       -0.0050507956 -0.0029295618 -0.0040695695 8.2310056e-05
000320 0d fd bb b9 f4 3d fc 3d 99 52 19 b7 5f 8b 4f be
       -0.00035855957 0.12316504 -9.138742e-06 -0.2026801
000330 8e f2 e6 b7 38 35 b1 37 2a 28 21 b8 77 a7 8f 3e
       -2.7531085e-05 2.1124826e-05 -3.8422797e-05 0.28057453
000340 ed 4f 9c 37 80 c2 89 3d c1 90 67 b8 84 c8 05 b8
       1.8633868e-05 0.06726551 -5.5209504e-05 -3.1896416e-05
000350 1c d6 86 3e 48 a1 2d b8 0e 60 a0 bc ca de d5 38
       0.26335227 -4.139662e-05 -0.019577052 0.00010198129
000360 39 ad 90 be be 96 8f b8 b7 b1 b4 3c b8 58 27 38
       -0.28257158 -6.846849e-05 0.022057397 3.989853e-05
000370 2d 28 24 bb 50 3a c5 3b f9 93 9e 3c 2d 1d 89 bb
       -0.002504836 0.0060189143 0.019357668 -0.004184386
000380 d4 a1 88 bb 46 b4 18 39 16 cb 85 bd 6a f6 63 b8
       -0.004169682 0.00014563007 -0.06532876 -5.435051e-05
000390 49 af 64 b7 9b bc 1e 38 fc 61 9a 3b 91 f9 ab b8
       -1.3630671e-05 3.7845788e-05 0.0047113877 -8.200401e-05
0003a0 de 84 4d b8 5b ae 08 3e 3e a4 dd 3d ed 46 bc bd
       -4.899955e-05 0.13347761 0.10822342 -0.091932155
0003b0 a0 e4 f8 3c c7 ac ed 38 dd e2 85 bb cd 48 77 b7
       0.030382454 0.00011333223 -0.004085882 -1.47392975e-05
0003c0 d7 a6 d7 3d 25 72 2c 3e 5a 72 44 be c2 af b3 b8
       0.10529869 0.16840418 -0.19184247 -8.5681226e-05
0003d0 5d 3f 7e 3c 86 87 bc ba e0 dc cb 3b c1 5f 90 38
       0.015518037 -0.0014383651 0.0062213987 6.8842906e-05
0003e0 e0 d4 90 3c 29 88 83 bd 51 1f 08 3b 1e 55 53 39
       0.017679632 -0.06422455 0.002077062 0.00020154237
0003f0 b5 74 87 3b 0d 3a 62 bb 83 64 18 be 15 45 87 bb
       0.0041337856 -0.0034519464 -0.14882092 -0.0041281083

features.conv0.weight f4 [12, 2, 5, 5]
000000 53 a6 76 bd cb f9 a8 c0 cb 25 62 c0 96 6f 52 41
       -0.060217213 -5.2804923 -3.5335567 13.152243
000010 51 53 90 40 52 29 6e bf 51 c9 97 c0 9c 89 93 40
       4.5101705 -0.930318 -4.7433248 4.610548
000020 9c 04 24 40 1a 8f be 3f 28 e3 8c 3f 70 3a 2f 41
       2.5627813 1.4887421 1.1006823 10.951767
000030 88 3f 26 c0 ce 1a 9f 40 15 91 1a c1 63 db ff bf
       -2.5976276 4.972022 -9.66042 -1.9988827
000040 f8 88 d4 c0 5e 79 8e 40 65 6f 56 41 62 73 e4 c0
       -6.64172 4.4523153 13.402196 -7.139085
000050 b2 9f 9a 40 96 ec 85 c1 48 da 5c 40 23 3d 2e bf
       4.831994 -16.74052 3.4508228 -0.6806204
000060 63 61 04 41 90 b1 de 40 06 e2 ae c0 da 71 82 40
       8.273776 6.959175 -5.4650908 4.076398
000070 1b 7b b0 3f 84 62 56 40 af ce 01 c1 03 50 39 bf
       1.3787569 3.349763 -8.11296 -0.72387713
000080 f4 f5 29 40 fe 12 e6 c0 65 88 a6 c0 68 41 c1 c0
       2.6556368 -7.1898184 -5.2041497 -6.039234
000090 85 a1 1a 40 f2 82 cf 3f 1e 4b 53 3f 9b f6 08 41
       2.4161084 1.6211836 0.82536495 8.560206
0000a0 70 b5 0e 41 92 ae 5e c0 23 79 02 c1 85 d7 ae bf
       8.919296 -3.479405 -8.154574 -1.3659521
0000b0 77 b4 99 40 a1 33 65 be 51 c8 49 40 df d5 aa c0
       4.8032794 -0.22382976 3.1528513 -5.3386073
0000c0 26 fc 24 c0 71 88 c0 40 38 59 46 bf e9 39 13 c0
       -2.57789 6.0166554 -0.77479887 -2.3004096
0000d0 23 2b 21 c1 69 dc 37 c0 83 db df 3f 93 a8 77 40
       -10.073031 -2.8728278 1.7488865 3.869664
0000e0 07 a3 b7 bf bd c9 c3 bf e8 50 2e 41 12 75 99 c0
       -1.4346627 -1.5295941 10.8947525 -4.795541
0000f0 d4 e2 21 41 2a 13 15 40 9e 8b f5 bf 0f 8a 53 40
       10.117878 2.3292947 -1.9183233 3.3053014
000100 3d b1 db c0 b7 6c 0d c1 69 54 0f c0 c7 9f 1e 41
       -6.8653855 -8.839042 -2.239527 9.914008
000110 a1 2e a7 c0 03 96 59 c1 90 e2 21 3f 19 c7 8d c0
       -5.224442 -13.599124 0.6323633 -4.430554
000120 f9 3d 87 40 49 4d 65 c1 f0 b7 cb c0 92 ca 0d c1
       4.226315 -14.331368 -6.3662033 -8.861956
000130 10 07 29 40 de fb d9 3f df c3 76 bf 71 66 a1 40
       2.641056 1.7029989 -0.96392626 5.043755
000140 b3 6a 59 be 7d 09 11 c0 a5 43 06 c0 1c 34 25 40
       -0.21232109 -2.266204 -2.0978787 2.5813055
000150 16 04 8e 40 d7 7f 40 41 85 91 cc c0 0e 78 28 40
       4.437999 12.031211 -6.3927636 2.6323276
000160 3d de 6f c1 4e 7c 46 c0 5f 6d d2 c0 91 c7 d6 40
       -14.991757 -3.101337 -6.575851 6.711861
000170 26 94 12 c1 3e 05 01 c0 a9 c1 e4 bf bd a7 0d 3f
       -9.161169 -2.015945 -1.78716 0.55334073
000180 9c 06 a2 40 db ad 49 c0 de 19 01 c1 83 e4 ec 40
       5.063307 -3.1512363 -8.068815 7.4028945
000190 93 ad b7 be 8e 25 82 40 f6 b7 f6 bf 7e 84 30 bf
       -0.35874614 4.0670843 -1.927489 -0.6895217
0001a0 11 03 35 41 4a 8d 8e 3f fd d4 5c c0 73 c5 6d c0
       11.313249 1.1136868 -3.4504998 -3.7151763
0001b0 b4 6f 9f 40 d4 92 09 c1 8a 17 50 3f 13 c6 0b 41
       4.9823856 -8.598347 0.8128592 8.735858
0001c0 c4 4a f6 3f 3f 02 a2 3f d1 c6 84 c1 63 2b e0 3f
       1.9241567 1.2656935 -16.597078 1.751324
0001d0 e2 84 dc 3f 76 41 d4 c0 8c ec 3e 41 00 76 3c 41
       1.7228053 -6.632991 11.932751 11.778809
0001e0 58 3b a6 bf c3 90 ab 3f 89 39 12 41 85 0a bd 40
       -1.298686 1.3403553 9.139047 5.907534
0001f0 ec ce f1 40 62 d8 c3 c0 0e 0c 15 c0 c5 ed 07 41
       7.556509 -6.120164 -2.3288608 8.495549
000200 81 30 28 c1 de 86 48 40 22 08 7a c0 d6 53 05 41
       -10.511842 3.1332316 -3.9067464 8.332968
000210 fa 38 a0 40 58 9d fa c0 fd b7 38 40 b8 01 12 c1
       5.006955 -7.831707 2.8862298 -9.12542
000220 20 a6 90 40 c1 75 61 40 41 24 a4 c0 4a c1 2a 41
       4.520279 3.5228121 -5.1294255 10.67219
000230 84 f4 72 40 1f 3b c2 bf 57 a8 0c c0 31 e6 33 41
       3.796174 -1.5174292 -2.1977746 11.243699
000240 6e 23 ec 40 ef 16 4e 41 92 a9 37 c1 95 76 62 c0
       7.379325 12.880599 -11.478899 -3.5384877
000250 08 9c b8 bf ae a5 85 40 96 56 40 bf c2 70 89 40
       -1.4422617 4.1764746 -0.7513212 4.2950144
000260 80 8d e8 c0 a9 5f de c0 bc b8 5d c0 90 0b 44 c0
       -7.267273 -6.9491773 -3.4644003 -3.0632057
000270 e0 c1 d7 40 39 a4 81 c0 16 34 32 40 1d 03 c4 40
       6.7424164 -4.0512967 2.784429 6.12538
000280 b1 77 c6 40 ab 57 dd c0 2b e2 84 bf c2 b4 67 41
       6.202111 -6.9169517 -1.0381521 14.48163
000290 18 1b b9 3f fe f2 6e 3e 6b 9b 15 40 42 5c c6 40
       1.4461393 0.23334882 2.337611 6.198762
0002a0 8b 0f b2 40 c5 cd 10 41 6d 79 dd bf 80 1a be 40
       5.5643973 9.050237 -1.7302681 5.940735
0002b0 b3 a3 17 c1 e2 07 67 c0 89 93 bc c0 00 0e 57 41
       -9.477466 -3.6098561 -5.8930097 13.440918
0002c0 57 e8 70 40 c6 51 89 bf ac 5c 68 c1 c2 87 a3 3f
       3.764181 -1.072808 -14.522625 1.2775805
0002d0 48 4f 06 c0 1b a4 1c c1 b4 d6 00 c1 25 ad 83 c0
       -2.098589 -9.790065 -8.052418 -4.114886
0002e0 63 9b b0 41 0b cc 84 40 3f 1f 98 41 9e e8 d4 3d
       22.075872 4.1499076 19.015257 0.10395931
0002f0 e7 ff b0 be 50 81 c2 c0 04 73 af 3c ed c5 d3 c0
       -0.34570238 -6.078285 0.021417148 -6.617911
000300 b2 ba 3d c0 ca 12 02 c0 22 aa 8e 40 68 ed 48 40
       -2.96452 -2.0323968 4.458268 3.1394901
000310 fb 16 80 c0 8f df 5e 40 96 f3 d3 40 86 5a ce 3f
       -4.002805 3.482395 6.6234846 1.6121376
000320 aa 8a 87 c1 d2 2a 0c 41 7d 28 53 c0 a9 c0 88 40
       -16.942707 8.760454 -3.2993462 4.273518
000330 a2 66 12 bd 7e 81 92 bf 63 4d ef bd dd df ca 40
       -0.03574241 -1.1445768 -0.11684682 6.339827
000340 90 1d 31 c0 1b 2a e0 40 eb 4d 9c c0 a1 cc 51 bf
       -2.7674294 7.00514 -4.8845115 -0.81952864
000350 4e 4f 10 41 63 fb 05 c0 12 18 92 3f fa ef c8 c0
       9.0193615 -2.0934684 1.1413596 -6.279294
000360 09 1b 00 41 30 f6 83 c0 26 23 83 3f 48 12 b3 c0
       8.0066 -4.123802 1.0245101 -5.5959816
000370 45 ac 8c be 8d 7d 3f 40 da 14 05 c1 c1 7a fc 40
       -0.2747518 2.992038 -8.317591 7.8899846
000380 79 f1 cb c0 fc d5 24 c0 b8 db cf 40 26 1a cf bf
       -6.3732266 -2.5755606 6.495571 -1.6179855
000390 52 9d 01 c1 32 3e 17 c0 8b 67 b6 c0 6c a6 8b c0
       -8.100908 -2.363171 -5.7001395 -4.364065
0003a0 6a ed 04 c0 96 c5 c1 40 51 e4 68 40 d6 ac a7 c0
       -2.0769906 6.0553694 3.6389353 -5.239848
0003b0 40 6b 5c c0 b4 f2 e9 40 f0 94 23 41 d6 24 96 c0
       -3.444046 7.310877 10.223862 -4.6919966
0003c0 c9 7d ce c0 c8 73 1b c1 0d 91 f7 c0 2b 7e b0 40
       -6.4528546 -9.715767 -7.7364564 5.5154014
0003d0 1e 81 1c c0 51 b9 1c 3f 58 5e 01 c0 8f 20 3c 41
       -2.4453807 0.6122027 -2.0213833 11.757949
0003e0 dc 7f 70 bf 1f 85 db c0 8c 11 63 bf 69 97 ff c0
       -0.939451 -6.86 -0.8869865 -7.9872327
0003f0 a1 de 1c 41 97 e0 c4 40 c6 0e 1e c1 11 61 a2 40
       9.804353 6.1524158 -9.878607 5.074349

features.conv1.scores f4 [64, 12, 5, 5]
000000 c3 c5 8f 3c 56 d4 e2 3b a9 f0 88 bd c9 63 88 39
       0.017550355 0.006922285 -0.06686527 0.00026014287
000010 ab e0 57 3c 72 f1 cb b9 d2 85 cd b9 f2 a6 02 bc
       0.013176124 -0.00038899068 -0.0003920035 -0.007974373
000020 b6 c6 95 bb 3d 93 93 3b 78 d1 65 bd c1 fb 0e 3d
       -0.0045708073 0.004503636 -0.056107968 0.03490806
000030 0b 06 70 b8 09 5e 6e 39 e0 74 3c 39 9b 78 2b 3d
       -5.7226087e-05 0.0002273248 0.00017972616 0.041863065
000040 55 ac 60 bb a3 f7 99 39 18 00 e9 3a bc d4 0c bd
       -0.0034282405 0.00029366938 0.0017776517 -0.034382567
000050 83 37 b0 3c 23 c9 a4 3c 7a 50 0e 3d e3 00 47 b8
       0.021510845 0.02011544 0.034744717 -4.7446123e-05
000060 ce 3e b0 b9 58 ab 3d 39 4e be b4 3b 77 a9 84 bb
       -0.0003361613 0.00018088275 0.00551585 -0.004048522
000070 58 ae 39 3a 11 94 82 38 53 fd 37 38 3a a1 66 bb
       0.0007083169 6.2264626e-05 4.3866527e-05 -0.0035191313
000080 0e 30 e7 b8 5b 42 54 b9 49 9d b2 38 be 20 26 3e
       -0.00011023889 -0.00020242615 8.516998e-05 0.16223428
000090 81 c0 77 3c f7 60 be b7 09 ab 0c 3d e4 c4 ba 3c
       0.01512158 -2.2694918e-05 0.0343428 0.022798963
0000a0 e6 3b 01 ba e5 47 a9 b9 c8 17 7c b9 65 a4 ae 3b
       -0.0004929885 -0.00032287757 -0.00024041452 0.005329656
0000b0 6b d4 1b bc 05 99 96 39 34 08 40 ba ff 46 81 39
       -0.009511094 0.00028724238 -0.0007325441 0.00024657694
0000c0 ae f1 f9 b9 ea 76 b9 3b a4 4b 45 ba 71 70 f3 38
       -0.00047673046 0.0056599276 -0.0007526225 0.00011608087
0000d0 54 ae c9 38 50 a7 23 3c 96 8b 02 39 48 bd da 3b
       9.616898e-05 0.009988621 0.00012449766 0.006675396
0000e0 0e 1b 2c b9 69 8e 2f ba 10 d3 5b ba b8 33 28 bc
       -0.00016413277 -0.0006696941 -0.0008385638 -0.010266237
0000f0 30 41 ae b9 8d 64 e6 3b e0 87 cf b8 05 66 45 3c
       -0.00033236435 0.0070310296 -9.895838e-05 0.012048249
000100 d5 0a 03 bd 18 20 05 39 d9 c4 da bb 24 70 43 3b
       -0.031992752 0.00012695824 -0.006676298 0.002982148
000110 f8 47 18 b9 85 3d 9d ba 07 23 a4 bb 17 d9 dd b9
       -0.0001452266 -0.0011996484 -0.0050090584 -0.0004231415
000120 05 65 e0 bb b8 41 d6 38 44 c0 27 3a dd 37 2a 3a
       -0.00684798 0.00010216556 0.0006399194 0.00064933096
000130 98 93 b8 bb a8 f4 42 ba 02 8c f0 3a 94 fe 33 bd
       -0.005632829 -0.00074369693 0.0018352272 -0.043943956
000140 cd f6 7b 3c e9 f3 07 3a 40 13 e7 3b d4 be 60 bc
       0.015378666 0.0005186187 0.0070518553 -0.013717372
000150 1b 93 00 bc c2 e3 ca 38 6d c2 6d 3b ba 79 be b9
       -0.007847573 9.674534e-05 0.0036279217 -0.00036330317
000160 80 44 c7 b9 e1 2a 5b 3c 8c 2d b6 34 25 14 af 38
       -0.00038007274 0.013376922 3.3933281e-07 8.3484025e-05
000170 93 0b 9e 36 f4 e6 06 b9 c8 b5 3d 3d 71 42 9e bb
       4.7101144e-06 -0.00012865273 0.04631594 -0.004829698
000180 e5 47 3f bc 0c e6 4b bc 2a 88 26 b8 4d 53 a0 b9
       -0.011674856 -0.012444984 -3.9704297e-05 -0.00030579642
000190 ec 0f bf b8 0f 44 74 bd 60 64 7a 38 a9 48 89 b8
       -9.1105554e-05 -0.05963522 5.9698126e-05 -6.546203e-05
0001a0 08 f4 97 3a 17 74 9c b9 13 77 44 bc 86 d1 e7 bb
       0.0011593113 -0.00029841132 -0.01199128 -0.0070745377
0001b0 44 50 91 bc 15 de 02 39 8c aa 10 39 3e d1 0f 39
       -0.017738469 0.00012480498 0.00013796444 0.00013715492
0001c0 90 85 10 bb 30 08 61 bb be c1 52 bb 95 0f 91 b9
       -0.0022052266 -0.0034337156 -0.0032158936 -0.00027668165
0001d0 cc 19 ab 3b f3 af 00 3c 6b f5 67 38 c0 29 4d bd
       0.005221581 0.00785445 5.5303255e-05 -0.050088644
0001e0 f3 e3 29 39 95 9e 17 38 8c 7d e4 3a 62 cc c6 3a
       0.00016202014 3.6148896e-05 0.0017432435 0.0015167112
0001f0 6c a5 c4 bc 2a 4c 81 37 46 72 8f b8 53 37 f5 3a
       -0.02400466 1.5413465e-05 -6.8400564e-05 0.0018708505
000200 a1 78 b3 3a d3 8f f0 b9 3c bf 5f 3c bb fd f2 ba
       0.0013692566 -0.00045883525 0.013656434 -0.0018538752
000210 c3 39 0f b9 2c ea 79 3b 7f 9a 5e ba 63 ba e6 3c
       -0.0001365906 0.0038133962 -0.00084916496 0.028165048
000220 3c 70 84 3c 8a 80 99 39 cd 5b fd 38 c3 3b 13 bb
       0.016166799 0.00029278203 0.00012081079 -0.002246604
000230 14 61 21 bb ad 5c 31 b8 c2 ac a1 38 7a ad ce 38
       -0.0024624513 -4.22864e-05 7.709257e-05 9.855158e-05
000240 4c 21 aa 38 5d 94 be 37 88 c4 83 bc 75 e5 06 3d
       8.112434e-05 2.2718852e-05 -0.016084924 0.03293367
000250 a8 17 ae 3c 58 65 08 b9 89 46 16 3c 3e 0d ca 38
       0.021251515 -0.00013007724 0.00917209 9.634577e-05
000260 e9 f6 29 b9 68 d4 10 3a ea 2c 25 3b 53 8a 77 3c
       -0.00016209077 0.0005524815 0.0025203773 0.015108663
000270 1e cb 4f bb 28 21 ac 37 b6 6e 75 3a 5b 86 fd 3a
       -0.003170676 2.0519437e-05 0.00093625055 0.0019342409
000280 b2 9c c8 3c e2 df 21 3a e9 ab 2b ba 54 66 eb 38
       0.02448878 0.0006175024 -0.0006548749 0.00011224733
000290 3f 66 a9 3b 12 f8 c9 ba 63 23 44 ba ec e9 8e bb
       0.0051696594 -0.0015409014 -0.00074820797 -0.0043613818
0002a0 5f 8d c8 3a 7a dd 4a 38 64 b1 99 3a b6 5e 14 b9
       0.0015300921 4.836682e-05 0.001172584 -0.00014149662
0002b0 64 29 c4 b8 06 86 19 bb 4a 85 45 3a 1a dc 84 3d
       -9.353718e-05 -0.0023425831 0.0007534815 0.064872935
0002c0 74 18 c9 3c 30 19 84 b9 75 ef aa ba 40 5b 95 38
       0.024547793 -0.00025195768 -0.0013041334 7.12187e-05
0002d0 84 d1 0b 39 ea 3e 47 bb 95 bb af 39 8b 1a 45 bb
       0.00013334124 -0.003040249 0.0003351836 -0.0030075635
0002e0 ee 5c b0 b8 e6 ce 5b bd 5d 24 2d bd 03 1d 38 3b
       -8.4096435e-05 -0.05366411 -0.042271007 0.0028093464
0002f0 b6 ff b7 b8 22 23 90 3c 03 7c 11 39 b6 76 79 39
       -8.77375e-05 0.017594878 0.00013874476 0.00023790714
000300 79 c4 bb 39 4b 39 b4 bb a0 0b ba 36 a5 f2 62 b8
       0.00035813803 -0.005499994 5.5445853e-06 -5.410858e-05
000310 4d 7a 6f 3c 67 91 b0 b7 45 84 00 b8 8e 33 09 3b
       0.014616561 -2.1048543e-05 -3.0640764e-05 0.002093527
000320 0e ff db b9 cb 40 cd ba 56 21 06 3a a9 bd 52 bb
       -0.00041960966 -0.0015659569 0.0005116662 -0.0032156503
000330 34 08 0a bc cd 69 8a bc a2 38 9e 3b 17 0f a5 bb
       -0.008424807 -0.016896153 0.0048285285 -0.0050371992
000340 ad 77 2a 3a 70 2e 1e 37 e2 4c 8a bb 12 27 a1 37
       0.00065028184 9.428346e-06 -0.004220591 1.921089e-05
000350 7e 8b db 3b 2f 8b 93 b8 2a 79 a9 38 18 02 b7 ba
       0.0066999784 -7.035431e-05 8.0811165e-05 -0.0013962416
000360 67 14 28 3a ee 4e 44 3b 79 60 a7 bc 1b 8c a5 b8
       0.00064117316 0.0029954272 -0.020431744 -7.89391e-05
000370 72 aa 17 bb 94 3c 01 3a 7b fa cb ba 60 4a 9a b8
       -0.0023142365 0.00049299863 -0.001556232 -7.357146e-05
000380 24 32 09 ba cb b6 a0 38 42 8a 8a 38 6a 4d 2f 39
       -0.0005233607 7.6634424e-05 6.606105e-05 0.0001671814
000390 90 7d 80 b8 3a 65 1f ba 22 ab 4d b9 e5 6a 58 3b
       -6.1269035e-05 -0.00060804526 -0.00019614075 0.0033022698
0003a0 7c 2e 1d bb 8b 02 18 ba 24 b1 11 bb a9 42 37 38
       -0.0023984006 -0.0005798719 -0.0022230828 4.3692682e-05
0003b0 51 22 1f b9 54 26 e6 b8 54 bf 14 3d 89 87 01 39
       -0.00015176205 -0.00010974394 0.036315277 0.0001235289
0003c0 1a 64 c2 3a 3f ba 8f bc 25 d8 a0 b9 e5 1e 34 3a
       0.0014830858 -0.017544864 -0.00030678618 0.0006871059
0003d0 a1 a1 e3 b9 c4 71 10 bc e7 04 3e 38 ff e5 b4 38
       -0.00043417237 -0.008816186 4.5304096e-05 8.625909e-05
0003e0 64 0a 3e b8 8a db cd bb c6 3f 98 3c 0e a8 33 ba
       -4.5309207e-05 -0.0062822746 0.018585097 -0.000685335
0003f0 d7 48 01 ba cf 84 27 ba 2b 03 18 b9 2a 6b e3 b8
       -0.00049318135 -0.00063903345 -0.0001449703 -0.00010844164

features.conv1.weight f4 [64, 12, 5, 5]
000000 2d 09 34 c0 9a 79 af bf af be 10 c1 b6 a5 97 40
       -2.81306 -1.3708985 -9.046554 4.7389784
000010 ec 3e b0 40 5e 4b c0 c0 2d 63 d4 c0 8d c2 70 40
       5.507681 -6.0092 -6.6371064 3.7618744
000020 b6 55 aa 40 00 32 0d 40 da a0 0c 41 fb f2 d1 40
       5.3229628 2.2061768 8.78927 6.5609107
000030 f4 2d 24 c1 d4 f1 77 bf 7a fe 50 c0 1d 1b 4a c1
       -10.261219 -0.96853375 -3.265532 -12.631619
000040 40 b0 22 c0 55 aa ad 3f 6b 3f 64 bf 57 ae 0b c1
       -2.5420074 1.3567606 -0.8915927 -8.730063
000050 3a b3 a1 c0 97 54 32 c1 dc 74 3f c1 fc 19 67 40
       -5.0531282 -11.145652 -11.96603 3.610961
000060 f3 97 82 bf 66 e2 0a 40 16 9d 12 c0 1b 2f 31 c0
       -1.0202621 2.1700683 -2.2908378 -2.7685
000070 0e 1c 4f c0 19 21 b9 c0 e7 52 73 be 19 16 ee 3f
       -3.2360873 -5.7852902 -0.23762093 1.8600494
000080 7e 5f df c0 0e 16 ff c0 f7 d7 81 c0 ca 69 8e 41
       -6.9804068 -7.971442 -4.057613 17.801655
000090 13 a5 3a 40 f2 97 bf c0 ba 11 b7 40 ba 5e 96 40
       2.9163253 -5.987298 5.720914 4.6990633
0000a0 f8 75 a5 bf be f7 ca 40 cf 40 02 40 08 1d af c0
       -1.2926626 6.342742 2.0352056 -5.472294
0000b0 03 7a ea c0 20 a5 07 3f 98 a9 8b 40 32 ec d6 3f
       -7.327394 0.52986336 4.3644524 1.6790831
0000c0 79 5d 62 bf 6c d0 be c0 a7 08 ac be 81 d2 20 41
       -0.8842388 -5.962942 -0.3360035 10.051393
0000d0 88 d7 06 40 d6 93 dc c0 5a 29 98 40 fe d8 36 41
       2.106905 -6.8930464 4.755048 11.427977
0000e0 36 66 20 c0 d7 3a 27 c0 0e 72 8a bf f6 e7 b0 c0
       -2.5062385 -2.6129663 -1.0816057 -5.5283155
0000f0 f6 5c db 3e e3 a1 90 c0 c8 73 56 41 01 0b 9f c0
       0.4284436 -4.5197616 13.403267 -4.9700933
000100 ee d3 24 c1 36 cf 6c c0 ca 0b a4 40 f9 c8 25 40
       -10.301741 -3.7001472 5.126439 2.5903914
000110 11 e8 f0 be ab 52 90 bf d5 49 51 40 c7 27 92 3e
       -0.47052053 -1.1275228 3.2701313 0.28545973
000120 56 bd 2c 40 41 a1 85 bf 0b 71 5a 3f 5d 2e 03 41
       2.6990561 -1.0439836 0.8532874 8.198819
000130 50 62 c6 c0 c5 7f 08 c0 2e 1c 75 40 d2 f7 2a 41
       -6.199501 -2.1327984 3.829845 10.685503
000140 27 04 91 40 d9 50 8e 3e a0 55 0c 40 96 08 9c 40
       4.531757 0.27796057 2.1927261 4.876048
000150 ac 9d 30 40 44 dc 32 41 bf 9c bb bf 57 98 f7 3f
       2.7596235 11.178776 -1.465721 1.9343365
000160 37 58 ba 3f cd 25 67 c1 9c 36 f1 3d be ba ee 40
       1.4558171 -14.446729 0.11777994 7.4602957
000170 c8 a7 f6 40 d3 95 7a 40 e5 1f 1b c1 65 bc 9c bf
       7.707981 3.9153945 -9.695287 -1.2244993
000180 b2 7a 64 c0 80 6a 5a c0 68 25 8c 40 69 e6 d5 40
       -3.5699887 -3.4127502 4.379566 6.6843762
000190 1e 03 34 40 cc e2 04 c1 e9 01 09 40 d3 25 12 41
       2.8126903 -8.30537 2.1407416 9.134234
0001a0 ec 78 c7 3f 32 21 c3 c0 4f b5 48 40 18 04 3e 40
       1.5583777 -6.097802 3.1360662 2.9689999
0001b0 7e 6f f7 40 aa c2 af bf ef 33 a3 be 39 eb 45 bf
       7.73236 -1.3731282 -0.3187556 -0.77312046
0001c0 21 9e e1 3f 95 79 cf 40 70 23 41 40 e8 83 99 40
       1.7626382 6.4835916 3.017788 4.797352
0001d0 91 5e 57 c0 c6 39 82 c0 9e 21 72 3f 03 d1 7d c1
       -3.3651469 -4.0695524 0.94582546 -15.863528
0001e0 15 d3 aa 40 bd 40 09 3e 92 52 c5 bf 85 14 f1 bf
       5.338267 0.13403602 -1.5415823 -1.8834387
0001f0 c9 4a 03 c1 8c dc ec 3f 77 eb 78 40 b3 b8 e4 c0
       -8.205758 1.8504806 3.8893716 -7.1475463
000200 53 83 01 40 d8 7d 9b c0 3a 0e 16 c1 87 72 95 c0
       2.0236404 -4.859112 -9.378473 -4.6702304
000210 f7 4b 4c bf d4 24 e3 40 17 ce 48 c0 0e ed 13 c1
       -0.79803413 7.0982456 -3.1375787 -9.245375
000220 50 d7 ea c0 a3 ff 4c be c5 17 44 41 ee 4d e1 bf
       -7.3387833 -0.20019393 12.255803 -1.7601907
000230 be 00 9c 3f cb cf 95 c0 a3 7e d4 c0 85 0f 14 c1
       1.2187726 -4.6816154 -6.6404586 -9.253789
000240 bb ef ca bd d0 38 40 c1 51 64 8b 40 e4 bf 14 41
       -0.09909006 -12.01387 4.3559957 9.296848
000250 07 1d de 40 16 77 1a bf 06 28 b2 40 bd 74 a2 40
       6.9410434 -0.6033796 5.5673857 5.0767503
000260 f2 6b 47 40 24 24 6c c1 24 90 21 40 bc 51 03 c1
       3.1159635 -14.758823 2.5244226 -8.207455
000270 25 98 f0 bf c5 02 89 41 88 36 3c c0 ba d4 b2 c0
       -1.8796431 17.126352 -2.9408283 -5.5884676
000280 56 5a c7 c0 22 b8 41 bf f3 81 ab bf 98 f7 ab be
       -6.2297773 -0.7567159 -1.3399032 -0.33587337
000290 7d 4f 09 c1 52 b8 84 40 5b d3 0d 40 17 05 00 41
       -8.581906 4.1475 2.216025 8.001243
0002a0 7a 92 5f c1 b2 7c 14 bc 43 11 29 c0 bc 7b ea 3e
       -13.973261 -0.009062933 -2.6416786 0.45797527
0002b0 c0 50 22 c0 f4 9b 5f 40 0f 44 02 41 c5 8f 09 c1
       -2.5361786 3.4938936 8.141616 -8.5976
0002c0 12 e8 73 c0 63 d9 22 41 26 bc 64 40 2c f3 0b c1
       -3.8110394 10.178073 3.5739837 -8.746868
0002d0 e9 30 47 40 c1 20 ea 40 c9 66 e1 bf 8e 4a ca 3f
       3.1123602 7.3164983 -1.7609493 1.5804002
0002e0 e0 9a ca bf e8 0f 1e 41 c8 26 28 41 d9 ed 49 3f
       -1.5828514 9.878883 10.509468 0.7887855
0002f0 4a 5e 08 c1 23 26 48 41 08 6b 73 40 8c d1 84 40
       -8.52302 12.509311 3.8034077 4.1505795
000300 7f cc 39 41 6b b0 17 c0 55 d6 ae 40 2f 9a 2a 41
       11.612426 -2.3701427 5.4636636 10.6626425
000310 94 4f 28 c0 81 75 98 3f a7 84 b8 3f 94 69 86 bf
       -2.629857 1.1910859 1.4415482 -1.050097
000320 e3 fe d9 c0 2d bb 8f 3f 22 fa 9d c0 17 93 fe c0
       -6.812364 1.1228997 -4.936784 -7.9554553
000330 b6 6e 6a c1 1d 80 d0 40 7d 72 52 40 c4 c6 c6 40
       -14.652029 6.515639 3.2882378 6.2117634
000340 ef 7d 09 40 15 6d d3 be 06 4f 79 40 f0 fa 39 c0
       2.1483114 -0.4129416 3.8954482 -2.905941
000350 65 97 cf 40 af 57 f5 bf b7 bb 97 c0 e4 1a 98 3f
       6.487231 -1.9167384 -4.7416644 1.1883206
000360 84 27 62 3f c0 2a fe 3f 2f 94 0d 41 cc 6d 02 c0
       0.88341546 1.9856796 8.848678 -2.0379515
000370 ec 4b d5 3f 98 6f 0a c1 7b 89 1e c1 a9 40 5e 41
       1.6663795 -8.652245 -9.908565 13.890786
000380 5b f6 37 41 66 98 67 3f c8 82 81 41 aa 41 85 41
       11.497645 0.90466917 16.188858 16.657063
000390 d8 44 17 3e 28 d1 7a 41 0b 67 c1 3f 84 2b 1f c0
       0.14772356 15.676064 1.5109571 -2.487031
0003a0 bc a3 f4 40 48 a4 b7 40 5d 93 ae c0 30 18 b5 c0
       7.644987 5.738804 -5.4554887 -5.6592026
0003b0 cc 11 67 c0 b1 7d cb c0 fd 69 49 41 69 30 2d c0
       -3.6104612 -6.359093 12.588376 -2.7060797
0003c0 26 2e 22 c0 1c 71 97 c0 b1 c2 91 bf 8f 2b 93 3f
       -2.5340667 -4.7325573 -1.138754 1.1497668
0003d0 23 3c 3b 40 18 a8 ff bf f2 26 93 3e 94 a6 d6 3f
       2.9255455 -1.9973173 0.2874065 1.6769586
0003e0 c0 6d 7e 40 ba 49 1d c0 00 62 12 c1 98 8b 75 40
       3.9754486 -2.457625 -9.148926 3.8366451
0003f0 ac f1 20 41 55 59 e7 40 91 c3 35 c0 2c f9 ae c0
       10.059002 7.229655 -2.8400614 -5.4679165

classifier.linear0.scores f4 [10, 2304]
000000 e0 63 e8 ba b5 5a b7 3b c9 e8 10 bc 85 69 a0 3a
       -0.001772996 0.00559553 -0.008844563 0.0012238479
000010 0b 9c 9d ba 07 d1 6e bd 69 d2 e4 ba 29 36 30 39
       -0.0012024654 -0.058304813 -0.0017457727 0.00016804844
000020 c2 79 05 b9 3d dd 2d b9 2c 0c 1b bb 5e 6e 3f 38
       -0.00012729227 -0.00016580983 -0.0023658378 4.5640736e-05
000030 e9 d1 9a 39 8a ae b5 39 a4 48 de ba a3 02 ad 3a
       0.00029529564 0.00034653052 -0.0016958904 0.0013199638
000040 87 e2 12 38 7f b5 15 38 bb e4 41 39 a3 8b 1c ba
       3.5020083e-05 3.56934e-05 0.00018491123 -0.0005971735
000050 9c 00 55 b9 e6 b7 6e 37 cb 87 41 3d 03 44 63 b9
       -0.0002031349 1.4228723e-05 0.047248643 -0.00021673743
000060 2b d3 69 bc 64 dc 0d 39 3a 91 30 ba 28 de e5 3b
       -0.014271538 0.0001352891 -0.00067355076 0.0070150085
000070 66 bc d1 39 8c 7d 54 3a 6f 4f f3 3a 52 b2 cd b9
       0.00040003954 0.0008105866 0.0018563102 -0.00039233506
000080 2e ca 2d b8 89 ea d4 3d 0c 61 c5 b8 4c a9 24 bb
       -4.143471e-05 0.103962965 -9.4117684e-05 -0.0025125323
000090 18 05 00 80 41 14 00 00 58 06 00 80 f4 20 00 80
       -1.827e-42 7.266e-42 -2.276e-42 -1.1821e-41
0000a0 33 01 00 00 ee 1a 00 00 16 20 00 80 1c 11 00 00
       4.3e-43 9.66e-42 -1.151e-41 6.138e-42
0000b0 dd b1 a3 18 7e 72 25 ae 55 10 86 02 13 0f 00 80
       4.231411e-24 -3.7618346e-11 1.9698905e-37 -5.408e-42
0000c0 c9 fa 86 13 ff 85 9c 1f 4c f0 68 28 ad 5d 6f ab
       3.407365e-27 6.629025e-20 1.2930693e-14 -8.503986e-13
0000d0 ab 51 08 90 40 24 00 00 2e a3 aa 1a 98 0a 00 00
       -2.6884185e-29 1.3004e-41 7.057398e-23 3.8e-42
0000e0 5e 26 d5 34 18 14 00 00 10 1b 00 00 ec 16 00 00
       3.9702257e-07 7.208e-42 9.708e-42 8.223e-42
0000f0 d2 40 b6 2d 33 3b 8b 9c a3 c6 49 af 0f 03 00 00
       2.071979e-11 -9.213551e-22 -1.8351413e-10 1.097e-42
000100 98 0f 00 00 22 03 00 00 b5 14 44 a9 11 20 01 38
       5.594e-42 1.124e-42 -4.3538703e-14 3.078586e-05
000110 64 22 a3 b6 01 46 b7 ad 5d 20 00 00 0d 0d 00 00
       -4.861782e-06 -2.083578e-11 1.161e-41 4.682e-42
000120 1b d9 9a b9 50 a7 4a bb da d9 5e 3a 52 5c 00 3c
       -0.00029534925 -0.003092248 0.00085010903 0.007834511
000130 8d d3 be 3a 63 5e 06 bd 93 48 b2 38 54 f1 77 39
       0.0014558897 -0.032804858 8.5012194e-05 0.00023645657
000140 87 84 d0 b5 ab df 66 39 fb 7a 17 bc 8f c5 82 ba
       -1.5535778e-06 0.00022017832 -0.009245629 -0.000997709
000150 e6 cb 25 ba fe f7 45 3b df 2e 37 ba 48 88 ce b9
       -0.0006324634 0.003020763 -0.00069878803 -0.0003939292
000160 f9 f2 c8 37 5d f0 1f b7 35 d6 39 3b a6 c7 b0 3a
       2.3955e-05 -9.5331025e-06 0.0028356437 0.0013487234
000170 18 af 79 b9 e7 c3 41 3a 59 e4 25 38 b2 56 53 bc
       -0.00023811718 0.00073915574 3.955173e-05 -0.012899088
000180 b6 cd 4c b9 19 f0 f7 ba 62 83 b1 38 92 d1 f9 b7
       -0.0001953159 -0.0018916159 8.46449e-05 -2.9780702e-05
000190 d2 10 04 38 79 e8 33 3a 9a 11 3e 39 d0 04 14 ba
       3.1486918e-05 0.0006862949 0.00018126369 -0.0005646469
0001a0 e5 71 1e 38 47 ee 96 b7 b5 a2 aa 39 19 3d a0 b8
       3.7776208e-05 -1.799235e-05 0.00032546153 -7.640775e-05
0001b0 54 df dd 3a c4 b6 7e 3b 10 10 ce 38 67 7e 22 39
       0.0016927519 0.003886626 9.825837e-05 0.00015496612
0001c0 c2 5d 8b b8 e9 e2 53 3a 46 83 eb 39 4d 08 c1 b6
       -6.6455e-05 0.00080828235 0.000449205 -5.7528146e-06
0001d0 4d 8a 38 b7 9c 5a 1b 36 5b 22 cd b7 bb 88 e1 b7
       -1.0999455e-05 2.3149541e-06 -2.4453902e-05 -2.688576e-05
0001e0 c7 e2 01 3b 59 74 2b bb de 04 fa 39 4e 9a f2 36
       0.0019819008 -0.0026161878 0.00047687342 7.2301254e-06
0001f0 d7 98 22 38 35 6b 2f 35 ab 08 d8 39 59 59 a9 b9
       3.8766153e-05 6.5348587e-07 0.0004120519 -0.0003230076
000200 cc 82 01 3b 1e ed 62 39 ac e6 96 30 61 ba 97 35
       0.00197618 0.00021641373 1.0979497e-09 1.130462e-06
000210 2a b2 1a 3c aa f3 d3 3b f0 15 ac b9 13 f3 22 39
       0.009441892 0.006468256 -0.0003282274 0.00015540076
000220 39 ab f3 39 44 0f 07 37 79 5d 19 38 e5 df 49 3c
       0.00046476143 8.050181e-06 3.6565096e-05 0.012321447
000230 81 dd 2d ba 84 25 a4 38 7b b5 55 39 ca f9 2b b6
       -0.0006632433 7.827117e-05 0.0002038087 -2.5626382e-06
000240 3f 0c 9a 3a f1 33 03 b9 cf 19 9c 3c df cc d9 3b
       0.0011752917 -0.00012512483 0.019055275 0.006646737
000250 f0 2d 64 b9 bb a4 d6 37 89 3d 52 bb ab b7 37 b8
       -0.00021760887 2.5587497e-05 -0.0032080135 -4.3801654e-05
000260 47 0d 22 ba 4c 77 c2 bc 14 cb a4 b7 8a b5 f6 b7
       -0.0006181788 -0.023738526 -1.964489e-05 -2.9410021e-05
000270 e5 89 e4 37 5c 78 16 ba 9a e0 59 bc 69 f4 00 ba
       2.724393e-05 -0.0005739981 -0.013298178 -0.00049192325
000280 4a d1 c2 b9 64 fb 23 38 d4 a8 a2 bd 0e d9 81 3b
       -0.00037158496 3.9096354e-05 -0.07942358 0.0039626425
000290 13 16 52 3a 2d bf 08 3b ac cc e1 38 0d 80 40 39
       0.00080141536 0.0020865903 0.00010766959 0.0001835825
0002a0 4b 32 cf bd ce dc 58 b8 cb f8 63 ba 7d 72 9f ba
       -0.101170145 -5.1704053e-05 -0.0008696436 -0.0012164857
0002b0 6f 80 7b 39 41 fe af 38 f9 54 c3 38 ad 0e 48 bc
       0.0002398507 8.392009e-05 9.314152e-05 -0.01221053
0002c0 de e6 39 37 89 50 f8 b7 64 96 82 bb 55 73 d4 3b
       1.1080612e-05 -2.9601406e-05 -0.003985213 0.006483475
0002d0 55 5b a2 3a 9b 88 ca ba 0a a5 e8 38 be 3f 8b 37
       0.0012386838 -0.0015452089 0.00011093363 1.6599774e-05
0002e0 da 74 32 38 0b 3e 04 3a 16 d8 72 b7 bf 2c 3d ba
       4.2547334e-05 0.00050446455 -1.44746355e-05 -0.00072164455
0002f0 ba 58 23 39 bd dc c1 b8 c7 1c 28 3d 8f f2 54 3c
       0.00015577945 -9.244073e-05 0.04104307 0.012997284
000300 0a b4 e7 39 c9 1d 51 3b cb 3f 0f bc ce 14 04 39
       0.00044193893 0.0031908622 -0.008743237 0.00012596251
000310 e6 c8 74 bb 01 2a 5c 3a 10 0a 77 b9 14 62 df 3b
       -0.003735119 0.0008398593 -0.00023559504 0.0068171117
000320 ed 61 26 3a 6f 8a 85 b9 f2 19 a8 b8 bb de eb bd
       0.00063469895 -0.00025470878 -8.015697e-05 -0.11517092
000330 32 ef b7 3c fd 1e ab ba e2 8b ea ba 95 72 8c 3c
       0.022452924 -0.00130555 -0.0017894472 0.01714448
000340 02 56 86 3a da 5f d2 39 2f 0d 05 b7 64 a4 dc bc
       0.0010249021 0.00040125736 -7.930487e-06 -0.026933856
000350 55 e6 63 bb f3 b5 a0 37 2f 8e 36 39 6a 6c 86 bd
       -0.003477474 1.9158213e-05 0.0001740984 -0.06563647
000360 6a 67 5c 38 e5 4d dc 38 9c 3e 86 39 31 36 67 3b
       5.25484e-05 0.000105049265 0.0002560512 0.0035280103
000370 c1 cd 85 3a d6 87 3a 3c 4d 74 10 ba b7 6e 02 bd
       0.0010208414 0.011384925 -0.0005510494 -0.031843867
000380 70 55 f9 38 64 a7 0e 3c 8a 57 c8 39 85 c7 c3 ba
       0.00011889159 0.008706901 0.00038212194 -0.0014936781
000390 08 a0 04 ba e1 c3 19 3a 4d 55 20 bd ab 75 68 39
       -0.0005059247 0.0005865675 -0.03914385 0.00022169079
0003a0 66 66 51 bd 5c 59 e1 b8 9f 4b 21 36 12 a8 0e 38
       -0.051123045 -0.000107454805 2.4034887e-06 3.4011966e-05
0003b0 53 b7 4c 3d 84 2a 38 be 5a 9a 87 3d 78 9d 51 3c
       0.04997952 -0.17984968 0.06621237 0.012793891
0003c0 60 fd 03 bb f3 ad b0 bc 6b 38 7c ba 47 be 7a bc
       -0.0020140037 -0.02156732 -0.0009621444 -0.015304155
0003d0 ea ae 1d bc e5 12 aa ba 1a 5c 1e bd 78 8c ad 3c
       -0.009624222 -0.0012975602 -0.038662054 0.021185145
0003e0 14 81 b7 3d cc d7 a9 39 a1 da e4 b9 49 fa 15 39
       0.089601666 0.00032394973 -0.0004365044 0.00014302986
0003f0 9c b0 75 39 51 fa 99 ba 48 a8 62 b7 a6 20 fe b9
       0.00023430813 -0.0011747574 -1.3509831e-05 -0.0004847098

classifier.linear0.weight f4 [10, 2304]
000000 0b 10 fb 3f 86 10 b8 40 d5 ba a2 40 db 6c 5c 40
       1.9614271 5.752017 5.0853066 3.444144
000010 57 64 1c c0 82 a2 a0 c1 0e ba 49 40 6d b0 19 c1
       -2.4436243 -20.07935 3.1519809 -9.605573
000020 d1 e4 44 c1 f6 68 64 bf 3f c6 46 bf ff 25 ea bc
       -12.305863 -0.8922266 -0.7764625 -0.028582571
000030 f5 b9 93 40 b7 bc 1f c1 cf 09 c3 c0 43 81 d3 c0
       4.61645 -9.983573 -6.0949473 -6.609529
000040 43 7f fa 3f 35 94 a3 40 bb 02 cc 40 6f 46 a5 bf
       1.9570087 5.1118417 6.3753333 -1.291212
000050 5a ed 4d 40 ef 6a 0a 3f 0c 21 8a c0 d1 6e 80 3f
       3.2176118 0.5406942 -4.316534 1.0033818
000060 d0 c3 0a c0 4d 6b ae 40 dc ae ad bf 1c 75 c5 3f
       -2.1682014 5.4505982 -1.3568988 1.5426364
000070 49 0f 22 c0 72 6d 9b 3e 2f 88 89 3f 8a 05 b4 bf
       -2.532183 0.30356938 1.0744685 -1.406419
000080 14 a2 15 bf e2 5b 90 41 10 16 b3 bf 83 d5 c5 3f
       -0.58450437 18.044865 -1.3991108 1.5455784
000090 4e 40 d1 40 d8 44 0d c1 91 2d 50 bc da f7 af c0
       6.5390997 -8.829308 -0.012706176 -5.4990053
0000a0 a1 0e 9a c0 9c 00 7f c0 c2 c3 9c 40 76 2c b2 bc
       -4.8142858 -3.9844122 4.898896 -0.021749716
0000b0 73 8c 64 40 1c cf 25 c1 76 fa f7 40 8a 87 53 41
       3.5710723 -10.363064 7.749324 13.220591
0000c0 94 69 2a 41 0f 7a 2f 40 77 6e a5 40 3d a9 15 41
       10.650776 2.7418249 5.1697345 9.353818
0000d0 8e 3d d3 c0 79 f2 ab 40 ff 3c 88 c0 c4 9b 60 3f
       -6.601264 5.3733487 -4.257446 0.8773768
0000e0 f4 47 31 41 a0 65 96 be 8f bb d0 bf 12 e0 06 c1
       11.080067 -0.2937441 -1.6307238 -8.429705
0000f0 5b 02 12 41 68 18 09 40 79 2f d2 40 07 e6 0d bf
       9.125575 2.1421146 6.568295 -0.5542912
000100 7c 43 9d 40 65 9a 6b c0 dd 47 d5 40 4e da 1d 41
       4.914488 -3.6812985 6.6650224 9.865797
000110 98 96 1b c1 a5 ee 1a 41 26 82 72 3f d8 3f c2 c0
       -9.724266 9.683263 0.9472984 -6.0702934
000120 09 d2 14 bf 75 ac a5 40 2e 79 4a c0 e6 b1 5c 40
       -0.5813299 5.177302 -3.1636462 3.448358
000130 b7 24 de c0 ad 30 07 41 84 14 30 c0 6d 54 b4 3e
       -6.941982 8.449384 -2.7512522 0.35220662
000140 38 3b bf bf 83 2f cf c0 7c d1 77 c0 3e f8 cc 40
       -1.4939947 -6.47455 -3.872161 6.405303
000150 a6 7d 10 41 26 d4 4d c1 4c 3d 2b c1 f8 1e 01 40
       9.030676 -12.864294 -10.702465 2.0175152
000160 d6 4c 56 40 c1 14 07 3e e0 c1 f2 c0 be c9 21 41
       3.3484397 0.1319151 -7.5861664 10.111753
000170 83 74 04 c0 72 73 f3 40 d9 6c c2 40 a1 8c cf c0
       -2.0696113 7.6078424 6.075787 -6.4859166
000180 79 18 90 3f f6 c7 2a 41 1e 10 80 c0 ad 88 51 3e
       1.1257468 10.673819 -4.0019674 0.20462294
000190 97 1b ff 40 c6 18 8f c0 b5 8d 89 c0 c6 2c 0e c1
       7.972118 -4.471774 -4.298548 -8.885931
0001a0 63 00 3c c0 45 81 7d 40 0d ad 1a c0 71 01 d7 bf
       -2.9375236 3.961015 -2.4168122 -1.6797315
0001b0 1d 96 2b 41 da e1 7f c1 62 32 29 c0 3b 30 31 40
       10.724149 -15.99264 -2.6437001 2.7685688
0001c0 ae f4 56 3f 37 1e 74 40 03 d5 25 40 8d 0e 16 41
       0.839671 3.8143442 2.5911262 9.378552
0001d0 71 29 05 3f 21 3e 80 40 13 fa 4a c0 8b 21 43 c0
       0.5201636 4.007584 -3.1715133 -3.0489223
0001e0 f6 4c 3e 40 cf 01 a6 c0 e7 d6 7d c0 58 ac e6 c0
       2.9734473 -5.187721 -3.9662416 -7.208538
0001f0 97 45 0a c1 45 25 db 3f 0e 5d 7a c0 52 e9 14 40
       -8.64199 1.7120749 -3.9119296 2.3267407
000200 8d f2 13 c1 f8 3c e2 40 7c ae 8d 3d af 8c fd bf
       -9.2467165 7.0699425 0.06918046 -1.9808558
000210 ae ec 50 40 51 3d f3 40 d0 cc 86 c0 3d 68 3d 41
       3.2644458 7.601235 -4.2125015 11.837949
000220 d8 8f 13 c1 fc be 17 c0 a4 82 3a bf 6e 8c a2 40
       -9.222618 -2.3710318 -0.7285559 5.0796423
000230 47 61 bc bf 0f d8 c8 40 ca b9 10 bf cf 56 e8 40
       -1.4717187 6.2763743 -0.5653349 7.2605968
000240 71 8a 17 40 de be 7d 41 67 20 06 41 6b f0 fd 40
       2.3678248 15.859098 8.382911 7.935598
000250 48 26 81 40 ca 2d 2f 40 3f 83 e7 bf 36 ac 41 3f
       4.035923 2.7371697 -1.8086928 0.756534
000260 c5 6a ca 40 08 5f 44 c1 7c 9a ab 3f 9e d2 32 41
       6.3255334 -12.273201 1.340652 11.17642
000270 43 c5 95 40 ff cd a7 40 48 27 4a 41 9e ca 77 3e
       4.68033 5.243896 12.63459 0.24198386
000280 a5 ca 33 40 0c 81 52 3e 0e eb 92 c0 2d 2b a4 bf
       2.8092434 0.2055704 -4.591193 -1.2825676
000290 0c 2e be 3f 8f 7c d2 3f e9 90 34 40 1f 57 8b 40
       1.4857802 1.6444262 2.8213446 4.354385
0002a0 55 cb 99 c0 4f 0a ad 40 01 38 ab 40 1f f8 c5 3e
       -4.806071 5.4075084 5.3505864 0.38665864
0002b0 3d da 6b bf ff ed 9e c0 28 9f a7 40 41 06 e1 40
       -0.9212988 -4.9665523 5.2381783 7.0320134
0002c0 e7 42 f0 c0 05 03 da bf d0 92 1a 40 de 96 c0 40
       -7.508167 -1.7032171 2.4152107 6.0184164
0002d0 22 ec ab 40 4b 74 60 c0 12 b7 cd bf fd 33 0d c0
       5.372575 -3.507098 -1.6071494 -2.206298
0002e0 f2 9d 0c c1 55 2a 8c c0 96 30 87 3d 3c f3 a1 40
       -8.788561 -4.3801675 0.06601064 5.0609417
0002f0 17 27 0d c0 58 5a df bf e5 bd fa 40 6d 6f b0 40
       -2.2055109 -1.7449446 7.8356805 5.513602
000300 cd a7 2d 40 1a d6 f8 bf cb 01 14 41 08 0d 77 c0
       2.7133667 -1.9440339 9.250438 -3.8601704
000310 04 ac a5 bf 96 86 0c 41 65 d7 a1 40 1e 62 43 c0
       -1.294312 8.782858 5.0575433 -3.0528636
000320 ad e1 bc 3f dc d4 05 c0 bc 7e 4d 3f 0f f7 14 c1
       1.4756371 -2.091117 0.80271506 -9.310317
000330 43 75 0e 41 7b 41 8e 40 54 68 16 41 17 e3 28 c1
       8.903628 4.445493 9.400471 -10.555442
000340 62 45 b3 3f 23 3e 1d 40 bf f2 5d bf 2b 56 01 41
       1.4005549 2.4569175 -0.86698526 8.083537
000350 49 05 2b 40 12 51 ff c0 22 8f ee be d6 c5 15 41
       2.6721976 -7.9786463 -0.46593577 9.3608
000360 c2 9b a3 40 0c b8 06 41 2b 6e 8e 3f c3 e9 a8 40
       5.1127634 8.419933 1.112737 5.2785354
000370 0a c8 3f 40 55 05 01 c1 d8 f1 92 40 83 91 44 c1
       2.9965844 -8.063802 4.592022 -12.285525
000380 df 2f d7 40 60 af 1d c1 ab 84 ee c0 61 0e d4 bf
       6.7245936 -9.855316 -7.453695 -1.6566888
000390 f6 a2 06 41 b7 6f 9f 3f 04 d9 82 40 61 20 90 be
       8.414785 1.2455968 4.088991 -0.28149703
0003a0 fa 30 ea 40 fa f1 60 3f e5 d9 83 40 7a 5c 69 40
       7.3184786 0.87869227 4.1203485 3.6462693
0003b0 99 ad 1d c0 4d 4e 27 c1 49 1c c5 c0 f3 d4 26 c1
       -2.4637206 -10.456616 -6.159703 -10.42699
0003c0 5e d9 38 40 c4 17 34 c0 85 e0 f5 40 19 03 16 41
       2.888267 -2.8139505 7.683657 9.375756
0003d0 f5 a4 5a c0 d0 fa cd c0 bd 72 01 41 5a 1d fb 3f
       -3.4163182 -6.4368668 8.090512 1.9618332
0003e0 9d 9b 26 41 87 1d ad c0 91 86 ec 40 2f cb c4 bd
       10.412992 -5.4098544 7.3914266 -0.09609067
0003f0 d9 bd 02 c1 ce b2 f3 40 01 c7 34 3f ff 57 bc 40
       -8.17135 7.6155767 0.70616156 5.8857417
